app/sites/AC Code/checkpoint_pol0.pth (torch, 5103 bytes, 8 tensors)

hidden_layers.0.weight f4 [12, 5]
000000 a4 8c ce be 9c 48 be 3d 89 25 d1 3d 60 d2 f4 bd
       -0.40341675 0.09291193 0.102122374 -0.11954188
000010 61 47 dc be 3d 7b 35 3e 30 82 6c be 65 d3 c6 3e
       -0.43023208 0.17722793 -0.23096538 0.38833156
000020 0e 6e 68 3e 6c 82 c5 bb fd 49 6f 3f 16 65 ae 3f
       0.22698233 -0.0060275104 0.9347227 1.3624599
000030 55 12 cf 3f c4 59 71 3f 5d 7a 60 3f 78 1f 35 bf
       1.617747 0.94277596 0.8768671 -0.7075114
000040 f2 6b 77 bf c4 48 9c bf f1 57 76 bf ee 68 2f bf
       -0.96649086 -1.2209706 -0.9622794 -0.68519485
000050 83 5b 6f be 8e 26 a0 bd e4 a3 12 bf 4e 10 57 be
       -0.23374753 -0.07819854 -0.5728133 -0.21002313
000060 91 71 68 bf 7d 1d 8e be 63 ad e4 be 31 02 d8 3e
       -0.9079829 -0.27756873 -0.44663534 0.42189172
000070 2e bf 0f 3f d6 fa 3e 3d 74 8c 77 3e e7 ad 95 be
       0.5615109 0.046625935 0.24174672 -0.2923424
000080 4b 90 86 bd cc 7f 8a be 53 a1 fa be 4e 71 a4 3f
       -0.065704904 -0.27050626 -0.48951206 1.2847078
000090 a0 47 30 3f a9 ef ec 3e 81 ce e4 3e 5b 31 5f 3f
       0.6885929 0.46276596 0.446888 0.87184685
0000a0 80 d9 55 bf 44 c8 2b be f7 f7 ea bd c1 af 6c bf
       -0.83535004 -0.16775614 -0.11473077 -0.9245568
0000b0 1f 8d ab be 0f 39 ec 3e 60 a0 a0 bd b6 1f 31 3f
       -0.33506104 0.46137282 -0.07843089 0.6918901
0000c0 96 58 cc 3e f0 d7 24 bc 92 ed 7f 3e ad 2b 0f 3f
       0.39911336 -0.010061249 0.2499297 0.5592602
0000d0 af a3 ae 3e bc d3 9a 3e c8 48 d2 3e 40 36 c6 be
       0.34109256 0.30239666 0.41071153 -0.38713264
0000e0 99 01 a4 3e 7e 28 de 3e 2d bd 52 3f 27 ce de 3e
       0.3203247 0.43390268 0.8231991 0.43516657

hidden_layers.0.bias f4 [12]
000000 55 9a 81 be d8 79 07 bd 7e 32 90 3f ca 1e af bf
       -0.25313058 -0.033075184 1.1265409 -1.3681271
000010 eb ef b5 bd ba b6 b2 be 06 66 b4 be 95 e1 90 3f
       -0.08883651 -0.34905034 -0.35234088 1.1318842
000020 5e 82 32 bf fb af c2 3e f0 12 7b 3e c2 79 78 3e
       -0.69730175 0.38024887 0.24518943 0.24265197

hidden_layers.1.weight f4 [12, 12]
000000 d8 d0 8b 3e de 4e e1 be d5 7b 96 be 9c b0 09 3f
       0.27307773 -0.44005483 -0.2939135 0.5378511
000010 44 0e 84 be 32 94 42 3f 80 aa 8d 3e bd 7d 41 bf
       -0.25792134 0.7600738 0.27669144 -0.75582486
000020 4a b6 b1 3e cf 01 b3 be bf 33 04 bf 3a 80 fd be
       0.34709388 -0.34962317 -0.5164146 -0.49511892
000030 2c 35 a4 bf 7b 34 c2 bc e6 a1 80 3f 92 5f 13 bf
       -1.2828727 -0.023706665 1.0049407 -0.57567704
000040 d4 b8 83 3e cc ce da 3e 69 a4 e1 3e 95 ad 8b 3f
       0.2572695 0.42735898 0.44070747 1.0912348
000050 a5 89 a2 3f b8 aa 90 3f 34 7e c1 be 2c f2 84 bc
       1.2698256 1.1302099 -0.37791598 -0.016228758
000060 19 c2 f6 3e 10 e1 b3 be 0d 01 e0 be 0a 03 7e 3f
       0.4819496 -0.35132647 -0.43750802 0.9922339
000070 42 f1 b5 3e c8 2b bc bc 44 52 e3 3e 03 b3 c7 be
       0.35535628 -0.022970095 0.443987 -0.39003763
000080 fe d9 e2 3e bc 1d 25 bf 9f 2d 77 be 01 07 0c bf
       0.4430694 -0.64498496 -0.24138497 -0.5469819
000090 71 b1 bd bf 22 98 b1 3e 8b 3d aa 3f e6 0b 84 bf
       -1.4819776 0.3468638 1.3300031 -1.0316131
0000a0 a6 86 4d bf 27 1e bb 3e 2f 11 36 bf 81 8b b1 3f
       -0.8028358 0.36546442 -0.7111997 1.3870698
0000b0 cf 73 33 bf fd 5f c8 3f ec 93 0f 3f e8 98 75 3e
       -0.70098585 1.5654293 0.56085086 0.2398411
0000c0 e5 cd 7c 3f f7 af af 3f 7c 73 fb bf 52 4c a9 3f
       0.9875167 1.3725575 -1.9644618 1.3226416
0000d0 62 ca 9e 3e bd e3 54 be 29 03 2c 3f b2 67 03 c0
       0.3101378 -0.2079 0.6719232 -2.053204
0000e0 dc fe a8 be d5 0b bc bf ec 8e ba bc e1 59 dc be
       -0.33006942 -1.4691111 -0.022773229 -0.43037322
0000f0 2d 51 16 be cb 92 1c ba 26 53 91 bd bc 85 26 bf
       -0.14679404 -0.00059728016 -0.070959374 -0.6504781
000100 97 11 e1 be af 26 09 3e 6d 0f f9 3e d3 55 ae 3d
       -0.43958732 0.13393663 0.4864458 0.085124634
000110 8f 5f d9 be 4a f5 a4 3d 01 4b 06 3f 87 59 e9 be
       -0.42455718 0.08054598 0.52458197 -0.45576116
000120 df 20 e7 3e 3b fb b3 bd e4 d0 72 bf 48 9b 49 3f
       0.45142266 -0.08788153 -0.9484999 0.78752565
000130 d8 7d dc 3e c2 db 29 bf c9 8d 27 3f 5f d4 65 bf
       0.4306476 -0.6635095 0.6545072 -0.8977718
000140 f9 0a 34 3f 02 53 64 bf 0b c6 0a bf 90 a5 57 bf
       0.7032924 -0.8918916 -0.5420844 -0.84237003
000150 2e 91 b6 3e 18 20 0f be e0 7d 9e be 77 91 4e 3e
       0.35657638 -0.13977087 -0.3095541 0.20172678
000160 fd 17 5c bd c3 8f eb 3e 68 08 3a 3f fe 06 f8 be
       -0.053733815 0.4600812 0.72669077 -0.48442835
000170 7f 9d 9b 3e 62 98 35 be e3 dd 5c be 8c 79 7c bf
       0.30393597 -0.1773391 -0.21569018 -0.98622966
000180 50 4a 84 bf b4 f7 8c be a2 54 04 40 36 05 bc bf
       -1.0335178 -0.27532732 2.0676656 -1.468909
000190 b1 fd 69 3d 45 aa 96 3f 71 b3 a1 3d 58 bb e4 3f
       0.057126705 1.1770712 0.07895554 1.7869673
0001a0 aa 71 a9 3d 3a 99 b7 3f 5c 89 8a be eb 05 29 3e
       0.08273633 1.4343636 -0.27057922 0.16506164
0001b0 5a c2 48 3f f9 18 4b bf e1 b1 1f bf e3 a8 a4 3e
       0.78421557 -0.7933498 -0.62380797 0.321601
0001c0 86 99 5d bd 41 02 29 3f 6b 69 c7 3e 69 87 0f bf
       -0.05410149 0.66019064 0.38947615 -0.56065995
0001d0 cc f5 54 3f c6 cd 79 be 76 c3 8a bf 77 88 f6 be
       0.83187556 -0.24394903 -1.08409 -0.4815099
0001e0 65 50 06 3f 13 6f 4d bd 35 25 46 bf 34 31 13 3f
       0.5246642 -0.050154757 -0.77400523 0.57496953
0001f0 19 22 1c be 6e 5d bd 3e 38 b8 9f 3e 63 d4 16 bf
       -0.15247382 0.36985344 0.31195235 -0.58917826
000200 02 5d c9 3e cd 54 07 bf 33 7f 6b bf 7f 3a 96 bf
       0.39328772 -0.5286377 -0.91990966 -1.1736602
000210 03 ac 7d be cd 12 88 3e 6e 17 86 be d7 91 cf 3e
       -0.24772649 0.26576844 -0.2618975 0.40540954
000220 8b 84 49 3e 9c 73 30 bf 91 ac 50 3e 22 ad 0a bf
       0.19679467 -0.68926406 0.20378329 -0.5417043
000230 df 47 1a 3d bf f7 06 be ed 13 53 3f 4a b5 ac 3e
       0.037666198 -0.13180445 0.8245228 0.33732063

hidden_layers.1.bias f4 [12]
000000 48 45 93 be 5b f4 8d 3f 7f 85 54 bf 56 4b ab 3f
       -0.28763795 1.1090196 -0.830162 1.3382366
000010 ff 56 ec bf 01 ba 9e 3e e0 53 e9 be d1 72 06 bf
       -1.8464049 0.31001285 -0.45571804 -0.52518946
000020 5a 3a bb 3f 14 29 f8 be 59 10 29 bf 9a 1c 07 bf
       1.4627182 -0.4846884 -0.6604057 -0.5277802

hidden_layers.2.weight f4 [12, 12]
000000 2d 42 4e 3e a9 b8 da be 9d 74 a9 3d 43 c2 a5 bf
       0.20142432 -0.4271901 0.08274195 -1.2949909
000010 68 c8 8a 3f b9 da 68 3e 74 2a 67 3e 36 d6 d5 3e
       1.0842409 0.22739686 0.22574788 0.41764992
000020 d9 fd bd bf 53 ec 4d 3f 04 6e 22 3f cc 87 5c 3f
       -1.4843093 0.8043873 0.6344912 0.8614471
000030 ff d2 ec 3e 29 ef 94 bf 83 d5 26 3f 69 c2 7f bf
       0.46254727 -1.1635486 0.65169543 -0.9990602
000040 d8 ee 80 3f b6 b1 81 3e 77 78 53 3f 44 2f 5f be
       1.0072889 0.25330895 0.8260569 -0.21795374
000050 69 f9 c4 bf 85 2a 66 3f 17 6b 4d 3f a0 1c 55 3f
       -1.5388614 0.8990863 0.8024153 0.83246803
000060 d9 f7 f4 3e 84 97 9c bf ae c4 86 be 4c 6e d1 be
       0.47845343 -1.2233739 -0.2632193 -0.40904462
000070 a4 72 a6 3f da ce 5e bd ce ac 81 be e8 54 0a 3f
       1.3003736 -0.054396488 -0.25327152 0.54035807
000080 72 49 41 bf ad 9f 93 3f f7 f0 54 3e 22 2d 04 bf
       -0.75502694 1.1533104 0.20795046 -0.5163137
000090 43 87 81 bf f4 f2 fa 3d dc 31 c4 bf 43 2a 9a 3f
       -1.0119404 0.12253371 -1.5327716 1.2044147
0000a0 f4 42 08 be 14 8b b0 3e b1 4c 7e bf 00 14 a3 be
       -0.1330679 0.34481108 -0.9933577 -0.31851196
0000b0 c8 ef ac 3e a8 e8 59 bf 68 0e ae bf db d5 4e bd
       0.3377669 -0.8512063 -1.3598146 -0.050496917
0000c0 8c 49 1b 3f 45 39 84 bf 6c ea d6 3f c8 28 30 bf
       0.606591 -1.0329977 1.679029 -0.6881223
0000d0 e7 41 70 3f 5d 3c 82 3d d2 ce da 3f d0 83 1c 3e
       0.9385056 0.0635917 1.7094367 0.15284657
0000e0 17 7b 8a be f6 6f a4 be ce 3b 6e 3f 7c 79 9b 3e
       -0.27047035 -0.3211667 0.93060005 0.30366123
0000f0 ce 0c 57 3f 20 58 ad bf 1f fa a9 3f ab 4b a1 bf
       0.84003913 -1.3542519 1.3279456 -1.2601217
000100 1d aa 42 3f a4 cf c6 be c0 e4 62 3f cd 39 bd be
       0.7604082 -0.38830292 0.88630295 -0.3695816
000110 7f a4 58 bf 62 bb 1f 3e 68 46 43 3f b8 35 a3 3f
       -0.84626 0.15598825 0.76279306 1.2750769
000120 d4 8d 8d 3d d7 d9 a5 bf 57 3b 96 3f 19 2b b6 bf
       0.06911817 -1.2957104 1.1736859 -1.4231902
000130 bd a1 a3 3f dd 12 bc 3e e4 b8 23 3f 03 5e 0c bf
       1.2783734 0.36733142 0.63953996 -0.5483095
000140 64 f5 b4 bf b9 4d 55 3f 37 e6 06 3f cb 60 87 3f
       -1.4137387 0.8332172 0.5269503 1.0576414
000150 61 31 48 bf 15 07 e2 bf 44 fc d2 3e b4 65 a1 bf
       -0.78200346 -1.7658411 0.41208088 -1.2609162
000160 a5 ff 04 40 8a 0c 75 3f 90 54 a1 3f e9 e0 af 3f
       2.0781033 0.9572226 1.2603931 1.3740512
000170 71 ff db bf 38 47 fb be e9 8b 2e bf 0f 4c 9b 3f
       -1.718733 -0.49077773 -0.68182236 1.2132586
000180 cc 06 cb be 8c 7e 97 3e 06 0c c1 bf f6 64 9d 3f
       -0.39653623 0.29588735 -1.5081794 1.2296436
000190 41 9e 84 be 3d c1 c4 3e 65 6f 12 bf b1 3f ba be
       -0.25901988 0.3842868 -0.57201225 -0.36376718
0001a0 9f 37 00 3f 56 6f 0c bf a4 5a 35 bf 3d 02 04 3c
       0.5008487 -0.54857385 -0.7084143 0.008057174
0001b0 6d 37 63 bf b4 f6 c5 3e 63 20 ae bf cb 7e 8d 3f
       -0.8875645 0.38664782 -1.3603634 1.1054319
0001c0 02 f3 4d be 43 66 98 3f e0 ea e0 bf e7 47 64 3f
       -0.20112231 1.1906208 -1.7571678 0.89172214
0001d0 b8 a6 58 3f d4 64 b6 bf 09 72 ba bf 95 a7 97 bf
       0.8462939 -1.424952 -1.4566051 -1.1848017
0001e0 fe 04 ce 3f b1 ab 9b 3e c4 ad 95 3f 00 fe 04 bf
       1.6095273 0.30404428 1.1693654 -0.51950073
0001f0 fa 0a 14 3e ce 8d 6a bf 10 02 91 3e a3 95 1b 3f
       0.14457312 -0.91622627 0.28321886 0.607752
000200 e9 51 86 be fd 5e 92 3f ea c2 95 3f 5a 1e 02 bf
       -0.26234367 1.1435238 1.1700108 -0.5082756
000210 94 22 9a bf b5 6d ca 3e c0 09 90 bf 67 01 c3 3e
       -1.2041802 0.39536825 -1.1252975 0.38087007
000220 ba b4 0b bf ec f0 24 3f 18 35 88 bf d8 e4 37 3e
       -0.5457264 0.6443012 -1.0641203 0.1795839
000230 14 cf ec 3e 42 cd 6f bf 61 f0 c9 bf eb 69 c2 be
       0.46251738 -0.93672574 -1.5776483 -0.37971434

hidden_layers.2.bias f4 [12]
000000 5e 1f 9d be 23 75 98 bf fc a5 86 bf 4e af 44 be
       -0.30687994 -1.1910747 -1.0519404 -0.19207498
000010 62 ac 8e bf 29 28 98 bf ac b5 a7 bf bc c0 ee bf
       -1.1146357 -1.1887256 -1.3102317 -1.8652568
000020 32 09 8f 3e 1c ec cd 3e d2 84 9d 3d 8b 01 2c 3f
       0.27936703 0.402192 0.07691349 0.67189854

output1.weight f4 [12, 12]
000000 0c ac 0a 40 49 ba 32 bf d0 d0 9f bd 37 ec 18 c0
       2.166751 -0.698155 -0.078035 -2.3894174
000010 80 09 f3 be ca aa 0a 3f d3 9e 3e 3e c3 5d 49 3f
       -0.47468185 0.54166853 0.18615274 0.78658694
000020 28 43 16 c0 2e a4 0a c0 0e bd e1 3f a8 6d 43 bf
       -2.347849 -2.1662707 1.763582 -0.763392
000030 a6 38 c8 3f 73 7a b6 be 44 5c 51 be 50 9f 17 c0
       1.5642288 -0.35640296 -0.20445353 -2.3690987
000040 9d 25 f5 3b 08 1d 72 3f 10 d8 71 be b9 96 b5 3e
       0.0074812905 0.9457555 -0.23617578 0.35466555
000050 24 55 13 c0 3d 85 1c c0 59 78 d5 3f 39 b1 89 bf
       -2.3020716 -2.4456322 1.6677352 -1.0757209
000060 af 98 d9 3f 7d 64 e7 be d8 28 81 3e c8 39 41 c0
       1.699972 -0.45193854 0.25226474 -3.0191517
000070 6a b5 9f be 31 cb 0b 3f 4a 2a f7 3d 5d 23 dc 3e
       -0.31193095 0.5460692 0.12068613 0.4299573
000080 84 ad 13 c0 d8 68 e3 bf ed 9f f6 3f 8c 3a 39 bf
       -2.3074656 -1.7766371 1.9267555 -0.7235496
000090 95 54 ce 3f 38 02 94 be 68 60 25 be 50 57 31 c0
       1.6119562 -0.28907943 -0.16150057 -2.7709541
0000a0 2f 18 26 bf 48 81 e1 3e 70 5b 52 3d 0a 73 ca 3e
       -0.6488065 0.44043946 0.051356733 0.39540893
0000b0 9e 63 1b c0 20 94 19 c0 6f ea f2 3f e9 13 8d bf
       -2.4279552 -2.3996658 1.8977793 -1.1021701
0000c0 25 88 ea 3f 42 80 1a bf 8e 82 24 bc dd 61 13 c0
       1.8322798 -0.60351956 -0.010040892 -2.302848
0000d0 81 d3 b7 be ed 78 b3 3e df d5 c7 3e c6 58 63 3f
       -0.35903552 0.35053197 0.39030358 0.8880733
0000e0 dc 86 0f c0 d2 81 16 c0 5e 11 c3 3f 27 7d 95 bf
       -2.2426062 -2.3516736 1.5239675 -1.1678818
0000f0 ac 35 bc 3f 15 5e 3b be a5 14 51 bd ee 7d 38 c0
       1.4703879 -0.18297608 -0.05104508 -2.8826861
000100 ef 27 1f bf eb 5b 00 3f f9 bc bc 3e c9 6f e5 3e
       -0.6217031 0.50140256 0.36862925 0.44811848
000110 55 84 0f c0 20 b4 20 c0 5f fe fe 3f 1d eb 50 bf
       -2.242452 -2.510994 1.9921378 -0.81608754
000120 48 87 be 3f e0 22 a9 be 38 bc 25 bd a2 9d 17 c0
       1.4885035 -0.3303442 -0.040462703 -2.3689961
000130 2d de e8 be 5c 9d d0 3e c5 61 27 3f 3d 2a 0c 3f
       -0.45482007 0.40745056 0.6538356 0.5475195
000140 e6 3b 01 c0 4f 41 1b c0 cd 9b f5 3f 0a 13 91 bf
       -2.019281 -2.4258611 1.9188172 -1.1333935
000150 8f 54 c5 3f 93 f7 ef be 0f d7 ce 3e a7 a9 24 c0
       1.541643 -0.46868572 0.40398452 -2.5728548
000160 31 68 4e bf 61 16 44 3e 8e 38 12 3e e1 a2 70 3f
       -0.80627733 0.19149162 0.14279386 0.93998533
000170 4c cd 0e c0 6f aa 08 c0 8a 6d 08 40 0b 7e 4c bf
       -2.2312803 -2.1354024 2.1316857 -0.79879826
000180 7a 5d 0a bf 39 9b 40 c0 08 fa fa bf 24 7d d7 be
       -0.54048884 -3.009474 -1.9607553 -0.42087662
000190 c9 bc 44 c0 35 3a 06 c0 a9 cd 08 c0 fb 5d fc bf
       -3.0740225 -2.0973027 -2.1375525 -1.971618
0001a0 75 aa b4 be 86 89 2e 3e a0 f8 42 bb c4 7a d2 3f
       -0.35286298 0.17044649 -0.0029750243 1.6443715
0001b0 2a da eb 3f 10 d5 b3 be 64 c5 97 3e 9c 1b 38 c0
       1.8425953 -0.3512349 0.29642785 -2.8766851
0001c0 bf 8a 4c bf 77 ea 65 3e 37 f2 ec 3d 9a 82 6b 3f
       -0.7989921 0.22452722 0.11569636 0.9199616
0001d0 9b bb 14 c0 3b 62 19 c0 11 00 e0 3f f5 98 41 bf
       -2.3239505 -2.3966205 1.750002 -0.7562402
0001e0 6e 1c d5 3f e1 4b 22 bf dd fb ac bd 53 03 23 c0
       1.6649301 -0.6339703 -0.084464766 -2.547078
0001f0 d8 2b 58 bf 49 b8 00 3f d7 76 b0 be 49 e5 35 3f
       -0.844419 0.50281197 -0.34465668 0.71052986
000200 95 00 0c c0 b8 78 39 c0 3b 22 12 40 74 34 be bf
       -2.1875355 -2.897993 2.2833393 -1.4859757
000210 f8 f5 b1 3f ed e4 e9 be 6c ed 88 bc fb 3b 22 c0
       1.3903189 -0.4568247 -0.016714774 -2.534911
000220 89 53 05 bf 91 b9 d4 3e ff 1a 7a be 1f 37 5a 3f
       -0.5208059 0.41547826 -0.2442436 0.8524036
000230 1d c5 20 c0 cb 65 13 c0 75 ab 04 40 6f 0d 96 bf
       -2.5120308 -2.303088 2.072965 -1.172285

output1.bias f4 [12]
000000 0e 41 c4 3e 4f 47 db 3e 3d b4 09 3f 2c be 01 3f
       0.38330883 0.42827842 0.53790647 0.50680804
000010 fa fd 17 3f bc c3 5e 3f 57 27 20 3f d7 e5 a7 3e
       0.5937191 0.87017417 0.6256003 0.3279254
000020 20 04 42 40 0a 0d 63 3f fd 47 63 3f ff aa 0b 3f
       3.0315018 0.8869177 0.8878172 0.54557794
