app/sites/AC Code/checkpoint_value0.pth (torch, 4079 bytes, 7 tensors)

hidden_layers.0.weight f4 [10, 5]
0	0xc00b987c	-2.181182
1	0xbff03c9c	-1.8768497
2	0xbfcfc964	-1.6233335
3	0xbfe36222	-1.7764323
4	0xc00c34eb	-2.1907299
5	0x3ffd14e8	1.9772005
6	0x4019745d	2.3977273
7	0x400d7c07	2.210695
8	0x400887a6	2.1332793
9	0x3fd21ce0	1.6415062
10	0xc01bc110	-2.4336586
11	0xc011be1e	-2.2772288
12	0xc009baf1	-2.152035
13	0xc010b542	-2.261063
14	0xc009ff42	-2.1562047
15	0xbff324a1	-1.8995553
16	0xbff333cf	-1.9000186
17	0xbffe8962	-1.9885676
18	0xc00e34f6	-2.2219825
19	0xc0029a92	-2.0406842
20	0xbfd2703c	-1.6440501
21	0xbff97954	-1.9490151
22	0xbfead373	-1.8345779
23	0xc0084b7b	-2.129607
24	0xbfed55f8	-1.854186
25	0x3fdc7d84	1.7225804
26	0x401b0cee	2.4226642
27	0x3fdfa177	1.747115
28	0x400eb9ad	2.2300828
29	0x400ef95f	2.2339704
30	0xbfca39b0	-1.5798855
31	0xbffd5130	-1.9790401
32	0xbfe080fe	-1.7539365
33	0xc006cd4c	-2.1062803
34	0xc017f038	-2.3740368
35	0x401c7ea9	2.4452307
36	0x3ff1058d	1.8829819
37	0x3fd3c0a8	1.6543169
38	0x3fcb9119	1.5903655
39	0x401971b0	2.397564
40	0x4017f2eb	2.3742015
41	0x3fe288ed	1.7698036
42	0x401434c2	2.31572
43	0x3fd7fc22	1.687382
44	0x4012c0f9	2.293028
45	0x4000b5d4	2.011098
46	0x3feb127a	1.8365014
47	0x40171702	2.3607793
48	0x4001a977	2.0259683
49	0x3fda1b61	1.7039605

hidden_layers.0.bias f4 [10]
0	0xbfcca4f0	-1.5987835
1	0x3fe0d1f6	1.7564075
2	0xc01996dd	-2.399833
3	0xbfe3a3c0	-1.7784348
4	0xc003212d	-2.0489
5	0x3fcd5fe8	1.6044893
6	0xc01282fc	-2.2892447
7	0x40145148	2.317461
8	0x3fcee0d9	1.6162368
9	0x4006b42c	2.1047468

hidden_layers.1.weight f4 [10, 10]
0	0xc08900a6	-4.281329
1	0xbe570428	-0.20997679
2	0x3e543fc8	0.20727456
3	0xc0839c19	-4.112805
4	0xc08249c9	-4.071507
5	0x406c1f28	3.6894016
6	0xc089ea04	-4.3098164
7	0x4085269c	4.160963
8	0xbdaf5430	-0.08560979
9	0xbe363b28	-0.17796004
10	0xbe86b6e0	-0.26311398
11	0x407b9408	3.93091
12	0xc0750aa2	-3.828774
13	0xbdcc5d60	-0.09978747
14	0x3d945560	0.072428465
15	0x3df15c00	0.11785126
16	0xbdf16690	-0.1178714
17	0xbe144b10	-0.14481759
18	0x4088f264	4.2795887
19	0x4071934d	3.7746155
20	0x3e93cb38	0.2886598
21	0xc06de76a	-3.7172494
22	0x4085ad06	4.177371
23	0x3e512740	0.20425129
24	0x3e042690	0.12905335
25	0x3e1e9f98	0.15490568
26	0xbe82c57c	-0.25541294
27	0xbea0c8e0	-0.31403255
28	0xc0833c6d	-4.101126
29	0xc07eb31c	-3.979682
30	0x3e96b494	0.29434645
31	0x4089ddd1	4.308327
32	0xc07c7a5c	-3.9449682
33	0xbd737340	-0.059436083
34	0xbe91f73c	-0.28508937
35	0xbe16ae88	-0.14715016
36	0xbe3ef748	-0.18649018
37	0xbdcbbf50	-0.09948599
38	0x4086a4e3	4.207628
39	0x406e4f9c	3.723609
40	0xbe6ce918	-0.23135793
41	0x40798fa6	3.8993926
42	0xc074a3c6	-3.822496
43	0xbe5aae28	-0.21355498
44	0xbdd4f4d0	-0.10398257
45	0xbdcfac10	-0.1014024
46	0xbd8c7760	-0.068587065
47	0x3b97ac00	0.0046286583
48	0x40862cd1	4.1929708
49	0x4083e1af	4.1212993
50	0x4081d69d	4.057448
51	0xbe04af40	-0.12957478
52	0xbde0f280	-0.10983753
53	0x4073cbeb	3.8093212
54	0x408357d2	4.1044703
55	0xc06ce4fa	-3.7014756
56	0x407c4452	3.94167
57	0xc0827a87	-4.077457
58	0x3e81ce90	0.25352907
59	0x3e5ed9c0	0.21762753
60	0xc086b7c2	-4.2099314
61	0xbd7e42c0	-0.062075377
62	0xbe23efa0	-0.16009378
63	0xc08633a2	-4.193803
64	0xc08274a4	-4.0767384
65	0x4073ce47	3.8094652
66	0xc0807a38	-4.0149193
67	0x407087ab	3.7582805
68	0x3e236380	0.15955925
69	0xbdb24060	-0.08703685
70	0x3e690d88	0.22759068
71	0xc0815390	-4.0414505
72	0x40724679	3.7855513
73	0xbe99156c	-0.29899156
74	0x3dc17330	0.094457984
75	0xbe6d7010	-0.2318728
76	0x3e223228	0.15839446
77	0xbe905a38	-0.2819383
78	0xc0868171	-4.203301
79	0xc0869a88	-4.2063637
80	0xbe9b87f4	-0.30377162
81	0x4082c85c	4.086958
82	0xc087c6e6	-4.2430296
83	0xbe12b5a8	-0.14327109
84	0xbde5b9a0	-0.11217046
85	0x3dbdbe50	0.09264815
86	0xbe82abe0	-0.25521755
87	0xbe0d2420	-0.13783312
88	0x4087e4c0	4.2466736
89	0x40846b00	4.1380615
90	0xbe370d28	-0.17876112
91	0x4084c442	4.1489573
92	0xc07b725f	-3.9288557
93	0xbd57c080	-0.052673817
94	0xbe85cac0	-0.26131248
95	0x3dc1f600	0.09470749
96	0x3d626920	0.055276036
97	0x3e988bc8	0.29794145
98	0x4075c3bc	3.8400717
99	0x4087717d	4.2326035

hidden_layers.1.bias f4 [10]
0	0x3e371928	0.1788069
1	0x4084afea	4.146474
2	0xc06ff83a	-3.7495255
3	0x4075b6a2	3.839272
4	0x4085f04f	4.1855845
5	0x3e076d40	0.1322527
6	0xbdf21260	-0.11819911
7	0xc078ab9a	-3.8854737
8	0x40727388	3.7883015
9	0x407db03c	3.9638815

hidden_layers.2.weight f4 [10, 10]
0	0xbdbc2c80	-0.09188175
1	0xc071a85b	-3.7759006
2	0x406fb3e0	3.7453537
3	0xc0737eba	-3.8046098
4	0xc07acd12	-3.9187665
5	0x3e9a26dc	0.30107772
6	0xbd86c060	-0.06579661
7	0x408562e2	4.1683207
8	0xc0757208	-3.835085
9	0xc06ef46c	-3.7336683
10	0xc089b41c	-4.303236
11	0xbe66b4c0	-0.22529888
12	0xbe907c58	-0.28219867
13	0x3e8999d0	0.26875162
14	0x3e0d6398	0.13807523
15	0x407f7c91	3.991978
16	0xc0748c53	-3.8210647
17	0xbd269ee0	-0.04067886
18	0xbe9caa28	-0.3059857
19	0xbdb709c0	-0.089374065
20	0x3e635948	0.22202027
21	0x408836e7	4.256702
22	0xc06cd76a	-3.7006478
23	0x408808b0	4.2510605
24	0x4088b940	4.2726135
25	0xbe6d4f58	-0.23174798
26	0x3dee0230	0.11621511
27	0xc085ee1c	-4.185316
28	0x407900a6	3.8906646
29	0x408320a6	4.0977354
30	0x406dba1a	3.7144837
31	0xbdaa8260	-0.08325648
32	0xbd8d7cf0	-0.069085956
33	0xbe557680	-0.20845985
34	0xbd17f180	-0.037095547
35	0xc0884c8b	-4.2593436
36	0x40880ba2	4.25142
37	0x3e924af4	0.2857281
38	0x3de753a0	0.11295247
39	0xbe519988	-0.20468724
40	0x40802e1e	4.0056295
41	0x3e928c90	0.28622866
42	0xbdee1800	-0.116256714
43	0xbdad3c70	-0.08458793
44	0x3dd96550	0.10615027
45	0xc0794c58	-3.8952847
46	0x4080fb9b	4.0307136
47	0xbd63abe0	-0.055583835
48	0xbe4a04b0	-0.1972835
49	0x3e86a4bc	0.26297557
50	0xc083a226	-4.1135435
51	0x3e8062f8	0.25075507
52	0x3cbde2c0	0.023179412
53	0xbe20bfa0	-0.15698099
54	0x3d9ed270	0.077549815
55	0x408111b6	4.033412
56	0xc080be25	-4.023211
57	0xbe70fec8	-0.23534691
58	0xbe744b78	-0.23856914
59	0x3d461c00	0.048366547
60	0xbfebae54	-1.8412576
61	0xc012f704	-2.2963266
62	0x3ff5c3e9	1.9200412
63	0xc014054f	-2.312824
64	0xbff8dbfb	-1.9442133
65	0x3fea5b8f	1.8309191
66	0xc0035f8d	-2.052707
67	0x40090e22	2.1414876
68	0xbffeaf3c	-1.9897227
69	0xc001f262	-2.0304189
70	0x4081809d	4.04695
71	0x3e944028	0.28955197
72	0x3da2ee80	0.079556465
73	0xbdef65c0	-0.11689329
74	0xbcfabc80	-0.030607462
75	0xc07f0d94	-3.9852037
76	0x40822d29	4.0680127
77	0xbd736d20	-0.05943024
78	0xbe92d9d4	-0.28681815
79	0xbe4e0a68	-0.20121157
80	0xc0855562	-4.1666727
81	0x3e853ea4	0.26024354
82	0xbe109698	-0.14119947
83	0x3e6c3be0	0.23069715
84	0x3e9952ac	0.29945886
85	0x4089b0dd	4.3028398
86	0xc0829296	-4.080394
87	0xbea03d68	-0.3129685
88	0x3e2f4f48	0.17120087
89	0xbe750338	-0.23927009
90	0xc08a1d7f	-4.3161006
91	0x3e89508c	0.26819265
92	0xbe41e200	-0.18933868
93	0xbe732f10	-0.23748422
94	0x3e8c3d38	0.27390456
95	0x40859ca4	4.175371
96	0xc0821c91	-4.065987
97	0x3d82e7e0	0.06391883
98	0x3d58fe80	0.052977085
99	0x3deb7020	0.114959955

hidden_layers.2.bias f4 [10]
0	0x4085c721	4.1805577
1	0xbe40f648	-0.18843949
2	0xc08715da	-4.2214174
3	0x3dcc6560	0.09980273
4	0x3e867598	0.26261592
5	0xbe985de0	-0.2975912
6	0x3ff3e6d5	1.9054819
7	0x3e928fd4	0.28625357
8	0x3d7a2800	0.061073303
9	0xbe47bc38	-0.19505394

output.weight f4 [1, 10]
0	0x3e8eb980	0.278759
1	0xc07a2ae0	-3.908867
2	0xbd106400	-0.035251617
3	0x407f0430	3.9846306
4	0x407367d0	3.8032112
5	0xc07c6f00	-3.944275
6	0xc0797d80	-3.898285
7	0x4070dda0	3.763527
8	0xc06d6760	-3.7094345
9	0xc0787700	-3.8822632
